SmartBandLogger/src/main/ml/myModel.tflite (tflite, 308400 bytes, 16 tensors)

output/bias f4 [3]
0	0xbbe56a11	-0.0070011695
1	0xbd09bd4a	-0.033627786
2	0x3cad36eb	0.021144351

dense_2/bias f4 [64]
0	0x3d5d1abb	0.05398057
1	0x3cf6a34c	0.030107163
2	0xbc917f4c	-0.017760895
3	0xbb9afa53	-0.004729548
4	0x3cdfae4c	0.02730479
5	0x3dd42468	0.103585064
6	0xbb69d43d	-0.0035679482
7	0x3cb97694	0.02263955
8	0x3c840dde	0.016119894
9	0x3ce3e362	0.027818386
10	0xbccde870	-0.025135249
11	0xbc769dc8	-0.015052266
12	0x3cbfbc06	0.023405086
13	0x3ddbac0b	0.10726174
14	0x3d31b63e	0.04338669
15	0x3dbcd1ad	0.0921968
16	0x3c578177	0.013153425
17	0x3ccf063e	0.025271531
18	0x3cc17b32	0.023618314
19	0x3c87a3b7	0.016557558
20	0x3cfaa12c	0.03059443
21	0xbc4c73bf	-0.012478768
22	0xbc251a4b	-0.0100770695
23	0xbc7b7ecd	-0.015350056
24	0xbc6fdc69	-0.014639952
25	0xbc75e2ba	-0.015007669
26	0x3cf9a70e	0.030475166
27	0x3d14d069	0.036331568
28	0x3d12637a	0.0357394
29	0xbc904c73	-0.017614579
30	0xbc2c3b3e	-0.010512171
31	0xbc377196	-0.011196515
32	0xbc8dfe2a	-0.017333109
33	0xbcbdf7ec	-0.023189507
34	0x3cdc93f9	0.026926028
35	0x3d39ab07	0.04532912
36	0x3b1286ac	0.0022358103
37	0x3de4239c	0.111396044
38	0x3d86c225	0.06579999
39	0x3d81b187	0.06332689
40	0x3d4c7a11	0.0499211
41	0xbc882c13	-0.016622579
42	0x3d219059	0.0394443
43	0xbc6b5390	-0.014363185
44	0xbc922f1d	-0.017844731
45	0xbc847298	-0.016167924
46	0x3d9facff	0.07796668
47	0x3d142fcd	0.0361784
48	0x3cf442e5	0.029817054
49	0xbcb7ae36	-0.022421937
50	0x3aa6444b	0.0012685148
51	0xbc5b89f8	-0.0133995935
52	0x3cbe1961	0.023205461
53	0x3d0a9e41	0.03384233
54	0x3d07b6a9	0.033133183
55	0xbc845c3e	-0.016157266
56	0x3ae807bd	0.0017702502
57	0xbc886946	-0.01665176
58	0x3b984ddb	0.004647953
59	0xbc585a75	-0.01320516
60	0x3cc3c158	0.023895904
61	0x3d215e8b	0.039396804
62	0xbcc2e103	-0.023788935
63	0x3dbfefd6	0.09371917

arith.constant3 f4 [128, 128]
0	0x3cff3b6a	0.03115626
1	0x3d7ce157	0.06173834
2	0x3d5cc467	0.05389824
3	0x3d918e7e	0.07107256
4	0xbd6dc2f9	-0.05804727
5	0xbca53e3a	-0.020171273
6	0xbc6f2ee9	-0.014598587
7	0x3d804a53	0.06264176
8	0x3cc8e32a	0.024522383
9	0xbd1787ca	-0.036994733
10	0xbd7b6208	-0.061372787
11	0xbde11ff1	-0.109924205
12	0xbcd286f2	-0.025699113
13	0xbd7c2bf9	-0.061565373
14	0xbbf731d8	-0.0075437836
15	0x3cc70dd0	0.024298579
16	0xbda777c3	-0.081771396
17	0x3d9deb06	0.07710843
18	0x3ca6772e	0.020320501
19	0xbc3e9a0e	-0.011633409
20	0xbce74e8a	-0.028235693
21	0xbd431b43	-0.04763342
22	0xbbd40eab	-0.006471475
23	0xbc4dd8ed	-0.012563926
24	0x3d3136ba	0.043265082
25	0x3d529479	0.051411126
26	0xbd278c73	-0.040905427
27	0xbd37c3ec	-0.04486458
28	0xbc24fef0	-0.010070547
29	0xbd98d5dd	-0.07462666
30	0x3d129a9a	0.03579197
31	0xbe07acb9	-0.13249482
32	0x3cf4b58e	0.029871728
33	0xbd2e673b	-0.042578917
34	0xbc0ef7bf	-0.008726059
35	0xbbb100ea	-0.0054017203
36	0xbd494b36	-0.049143992
37	0xbe3c0f43	-0.18365197
38	0x3bf9945e	0.0076165637
39	0xbcf12887	-0.02943827
40	0xbce92ada	-0.028462816
41	0x3cd3c053	0.025848543
42	0x3d7bee18	0.06150636
43	0x3d0d519e	0.034501664
44	0xbcbef79e	-0.023311432
45	0x3c5f4390	0.013626948
46	0x3a81455e	0.0009862592
47	0xbcc41f5c	-0.023940735
48	0xbc40dc4b	-0.011771272
49	0xbdacfe58	-0.0844695
50	0x3d28d7d6	0.041221462
51	0xbc7108df	-0.014711588
52	0x3d945f53	0.07244744
53	0xbd705867	-0.058678057
54	0x3d78dbee	0.060756616
55	0xbcc444c8	-0.023958579
56	0x3d3377fb	0.043815594
57	0x3d5fc01b	0.054626565
58	0xbce69b43	-0.028150206
59	0xbced43cc	-0.028962992
60	0xbd01419a	-0.031556703
61	0xbd436f02	-0.047713287
62	0xbc9e736a	-0.019342143
63	0xbd2a32a0	-0.041552186
64	0x3d8aff42	0.06786968
65	0xbd46f4b8	-0.048573226
66	0xbc0131f9	-0.00788545
67	0x3d5feb78	0.05466792
68	0xbc972d00	-0.018454075
69	0x3d545f13	0.051848482
70	0x3d6c7bac	0.05773513
71	0x3bfea985	0.007771673
72	0x3d1d350a	0.03838066
73	0xbe12be16	-0.14330325
74	0xbdefdd46	-0.117121264
75	0x3d46aefc	0.04850672
76	0xbbb8cc02	-0.005639554
77	0x3d81c291	0.06335939
78	0xbe0ed143	-0.13947015
79	0x3d4f37db	0.050590377
80	0x3ca72f2b	0.020408234
81	0x3da10235	0.07861749
82	0x3cdfbb5f	0.027311025
83	0xbccb0bf6	-0.024785977
84	0xbd62f8b3	-0.05541296
85	0x3bad0006	0.005279544
86	0xbdbf6b97	-0.09346693
87	0x3d944e65	0.07241515
88	0x3d8d19af	0.068896644
89	0x3d410453	0.047123265
90	0xbd3caedb	-0.046065193
91	0xbc887989	-0.016659515
92	0xbd5068d0	-0.050881207
93	0xbc8258ee	-0.015911546
94	0x3d206983	0.039163124
95	0x3d01deb8	0.03170654
96	0xbd18099b	-0.037118535
97	0xbdc9674c	-0.098341554
98	0x3e1fbf7a	0.15600386
99	0xbd8c3da3	-0.06847694
100	0xbe12b0d5	-0.14325269
101	0xbd85fd24	-0.06542423
102	0xbc2cd708	-0.010549314
103	0xbd8bdb22	-0.06828906
104	0xbd886639	-0.066601224
105	0xbd14a45f	-0.03628957
106	0xbd289212	-0.04115493
107	0x3d982edb	0.07430812
108	0x3d602001	0.05471802
109	0x3d8f897f	0.07008647
110	0x3d816c5f	0.06319498
111	0xbd65484e	-0.05597716
112	0x3b70aebc	0.0036725244
113	0xbdac23fb	-0.084053
114	0xbd535d42	-0.05160261
115	0xbd885a1c	-0.06657812
116	0xbd063677	-0.032766785
117	0x3b895625	0.0041911774
118	0x3c82f7ac	0.01598724
119	0x3deb2f8d	0.11483679
120	0x3ca5145d	0.020151312
121	0xbd9ebef5	-0.07751266
122	0xbdf1ee7a	-0.11813064
123	0x3cd07fd2	0.025451574
124	0xbdb0f441	-0.08640338
125	0xbd8edee4	-0.06976107
126	0x3dccb0e0	0.09994674
127	0xbd58dd5b	-0.052945476
128	0x3c4dc23e	0.012558518
129	0x3cb25943	0.021771079
130	0xbd779a67	-0.060449984
131	0xbc1f53db	-0.009724583
132	0xbe0015d6	-0.1250833
133	0xbc4d37c7	-0.012525505
134	0x3dd40c76	0.10353939
135	0x3d0a2ed7	0.033736076
136	0xbcfee45a	-0.031114746
137	0x3be59fa3	0.0070075556
138	0xbe3cc651	-0.18435027
139	0x3e0692a0	0.1314187
140	0xbb0c1178	-0.0021372717
141	0xbd09edec	-0.033674166
142	0x3dc1ab86	0.094565436
143	0xbd091877	-0.033470597
144	0xbddc999f	-0.107714884
145	0x3d43118d	0.04762416
146	0xbd2aabe0	-0.04166782
147	0xbe2f2dc0	-0.17107296
148	0xbdb31089	-0.08743388
149	0xbe372227	-0.17884122
150	0xbc855616	-0.0162764
151	0xbc8c7ff2	-0.017150853
152	0xbd7b398c	-0.061334178
153	0x3cf83f78	0.030303702
154	0xbdf3ca49	-0.11903817
155	0x3bda0006	0.006652835
156	0xbbd62c6c	-0.006536057
157	0xbd6a407b	-0.0571904
158	0x3d56e484	0.052464023
159	0xbd9c0545	-0.076181926
160	0x3d7d10e8	0.0617837
161	0xbca7d28a	-0.020486135
162	0x3d74a043	0.05972315
163	0x3d2cbd74	0.042172864
164	0xbd922716	-0.07136361
165	0x3da381db	0.07983752
166	0xbcf5e527	-0.030016495
167	0x3c324270	0.010880098
168	0x3bb28083	0.0054474487
169	0x3e0267bb	0.12734883
170	0x3be4eb0e	0.0069860285
171	0x3e25b26e	0.16181347
172	0x3d68dedc	0.05685316
173	0x3e0dd718	0.13851583
174	0x3e21e559	0.15810145
175	0x3d3a5330	0.04548949
176	0x3c9817e5	0.018566081
177	0x3dc2de1c	0.0951502
178	0xbd80e707	-0.06294065
179	0x3d9b535d	0.0758426
180	0xbd46c070	-0.048523366
181	0xbdad9487	-0.08475595
182	0xbdb2b771	-0.08726395
183	0xbd27900a	-0.04090885
184	0x3a5e27be	0.000847455
185	0x3e45c141	0.19312002
186	0xbd8756a8	-0.06608325
187	0xbd30a385	-0.043124694
188	0x3df45756	0.119307205
189	0x3d5b1ffc	0.0534973
190	0x3e0ecb8e	0.13944837
191	0x3d49888b	0.049202483
192	0xbca7307f	-0.020408867
193	0x3d967fb3	0.073485754
194	0xbd04b017	-0.032394495
195	0x3cf658fe	0.030071732
196	0x3b898ffe	0.0041980734
197	0x3cef0945	0.029179225
198	0xbe10c669	-0.14138187
199	0xbd7e788b	-0.062126677
200	0xbcb4f913	-0.022091424
201	0xbcae5772	-0.021281932
202	0xbccc2736	-0.024921041
203	0xbd4fdfa6	-0.050750397
204	0x3e175913	0.14780073
205	0xbdc4403f	-0.095825665
206	0xbc53aaa4	-0.012919102
207	0xbe136bb8	-0.1439656
208	0x3dbad7a0	0.091231585
209	0x3db883c4	0.09009507
210	0xbdace05c	-0.08441231
211	0xbd4087ea	-0.047004618
212	0xbd2d619b	-0.042329412
213	0x3c8f95d6	0.017527502
214	0x3c333e95	0.010940214
215	0x3b899bf8	0.004199501
216	0x3d56846a	0.052372374
217	0xba8fe1c7	-0.0010977321
218	0x3cf0c91a	0.029392768
219	0x3e0a54f4	0.1350897
220	0xbd8dbf6c	-0.069212765
221	0x3d6d57b1	0.057944957
222	0xbdeadd7b	-0.11468025
223	0xbdb1808b	-0.08667096
224	0xbda8cee6	-0.08242588
225	0x38ee07a4	0.000113501475
226	0xbc360443	-0.0111094145
227	0x3c9e2fc2	0.019309882
228	0xbd6fbb5f	-0.0585283
229	0xbdff22a4	-0.12457779
230	0x3d30934a	0.043109216
231	0x3d521fa2	0.0512997
232	0x3bd3aad9	0.0064595756
233	0xba606d48	-0.0008561206
234	0xbc8fc6e5	-0.017550895
235	0x3d0d69a7	0.034524586
236	0xbdbd6870	-0.092484355
237	0xbcd26e4e	-0.025687363
238	0xbda14261	-0.07873989
239	0xbda0903e	-0.07840012
240	0x3d339555	0.043843586
241	0xbd03620f	-0.032075938
242	0x3cbcf1b3	0.02306447
243	0x3d328c18	0.043590635
244	0x3d3d40a6	0.04620423
245	0x3cc1583f	0.02360165
246	0xbde63fda	-0.112426475
247	0xbd5aff24	-0.053465977
248	0xbc1ecfcb	-0.009693096
249	0x3dd4b716	0.10386483
250	0xbd458160	-0.048219085
251	0x3dbc5167	0.09195214
252	0x3d7eb14c	0.062180802
253	0xbd984f61	-0.07437015
254	0x3d0bc815	0.03412636
255	0x3dea8676	0.11451428

arith.constant4 f4 [128, 128]
0	0x3d377ee8	0.04479876
1	0xbc4bd93a	-0.012441928
2	0x3dc932d0	0.09824145
3	0xbc605400	-0.013691902
4	0x3dd8bb18	0.1058256
5	0xbc564ace	-0.013079358
6	0x3c89797d	0.016781563
7	0x3d6ef355	0.05833753
8	0xbca49a8c	-0.020093225
9	0xbb6bbeec	-0.0035971953
10	0xbd338916	-0.043831907
11	0x3cc759ec	0.02433487
12	0x3c45a02b	0.012062113
13	0x3c8a6132	0.01689205
14	0xbd89c6ea	-0.06727393
15	0xbc0794bf	-0.00827521
16	0x3de8292e	0.113359794
17	0x3d87bca4	0.06627777
18	0x3d0c1014	0.03419502
19	0x3d29676c	0.041358396
20	0xbb7db5af	-0.0038713028
21	0x3d92b62c	0.07163653
22	0x3cb6cf89	0.022315757
23	0xbcd4d2e8	-0.025979474
24	0xbd0436b5	-0.032278735
25	0x3d9d83e4	0.07691172
26	0x3d2819df	0.041040298
27	0x3c886e41	0.016654136
28	0x3dd802bc	0.105473965
29	0xbd95248f	-0.072823636
30	0xbcb9574e	-0.022624638
31	0xbdae9f9d	-0.085265376
32	0x3ccbd2e5	0.024880836
33	0x3c812113	0.015762841
34	0x3bf9192b	0.007601877
35	0x3e02fce5	0.12791784
36	0xbdafab5f	-0.08577608
37	0x3bb67fdf	0.0055694426
38	0x3d62a031	0.05532855
39	0x3d39f8e8	0.04540339
40	0xbdbe8a29	-0.09303696
41	0xbb90a6bf	-0.004414409
42	0x3d441b5a	0.047877647
43	0x3d06a31b	0.032870393
44	0x3bbca6f8	0.005757209
45	0x3d86e261	0.06586147
46	0x3cdd76dd	0.027034217
47	0x3c8733a3	0.016504114
48	0xbc626b64	-0.013819549
49	0xbcae7e38	-0.02130042
50	0xbd3bb2c3	-0.045824777
51	0x3cefc3da	0.029268194
52	0x3d053c05	0.032527942
53	0xbd154756	-0.036444984
54	0xbd47caaa	-0.04877726
55	0xbd2a4b6a	-0.041575827
56	0x3cc0245f	0.023454843
57	0x3d96c471	0.07361687
58	0x3dac65da	0.08417864
59	0xbb8faaec	-0.004384389
60	0xbd3416c4	-0.043967023
61	0xbccc0321	-0.024903836
62	0xbd4810ba	-0.048844077
63	0xbd25734f	-0.04039317
64	0x3bd8a602	0.0066115865
65	0xbcab6a61	-0.020924749
66	0xbc32d81e	-0.010915784
67	0xbca0e572	-0.019640658
68	0xbb930d90	-0.0044877008
69	0xbd52fd06	-0.051510833
70	0x3d172ef0	0.036909997
71	0xbdb95667	-0.09049683
72	0xbb8286c6	-0.0039833514
73	0xbd1b167b	-0.037863236
74	0x3e065713	0.13119154
75	0x3d967de6	0.07348232
76	0x3cfdc9f0	0.03098008
77	0xb9f90884	-0.00047499326
78	0xbd13ca2c	-0.036081478
79	0x3df29b92	0.11846079
80	0x3d8a17ba	0.06742807
81	0x3c22151e	0.00989273
82	0x3d94fe61	0.072750814
83	0x3cdd8cdc	0.027044706
84	0xbc676bca	-0.01412482
85	0xbdbd8a96	-0.09254949
86	0x3d97b05d	0.074066855
87	0x3d6cb91d	0.057793725
88	0x3dbd9531	0.09256972
89	0x3dcb4e63	0.099270605
90	0x3a21c128	0.0006170445
91	0xbcb89798	-0.022533223
92	0xbc8672f4	-0.016412236
93	0xbce609f5	-0.02808092
94	0xbc852a20	-0.016255438
95	0xbd959530	-0.07303846
96	0x3da3b3c4	0.07993272
97	0xbd4598ab	-0.0482413
98	0x3cc3b6a6	0.023890804
99	0xbd056355	-0.032565434
100	0x3d1785c2	0.036992796
101	0x3d5b729b	0.053576093
102	0x3ca0b46d	0.019617284
103	0xbbc8f44d	-0.0061326385
104	0x3d30726f	0.043077882
105	0x3d860c40	0.06545305
106	0x3c11c74a	0.008897612
107	0xbc631bb9	-0.01386159
108	0x3d8346d2	0.06409992
109	0xbba7e486	-0.0051236777
110	0x3d3564e2	0.044285662
111	0xbe05f3b9	-0.13081254
112	0xbce92307	-0.028459085
113	0x3c907ed4	0.017638601
114	0x3d8b1ab7	0.06792205
115	0x3cf301d3	0.029663956
116	0xbc8ed455	-0.017435232
117	0xbc981bb9	-0.018567907
118	0x3d4fc0a8	0.05072084
119	0xbc65d769	-0.014028409
120	0xbcf2703a	-0.02959453
121	0xbd82ece8	-0.063928425
122	0xbdaa679f	-0.083205454
123	0x3b8fed52	0.0043923045
124	0x3d44a9b4	0.048013404
125	0x3c4547a1	0.012041003
126	0x3d843123	0.064546846
127	0xbd162b95	-0.036662657
128	0x3d06eee2	0.03294266
129	0x3d77f010	0.060531676
130	0x3c869ff4	0.016433693
131	0xbd2d1609	-0.042257342
132	0xbb93271d	-0.0044907467
133	0x3d42c6bd	0.047552813
134	0x3ad8afe8	0.0016531916
135	0xbac22dd2	-0.0014814681
136	0x3d112844	0.03543879
137	0xbcdcbde7	-0.026946021
138	0x3df3d389	0.119055815
139	0xbc08108d	-0.008304727
140	0xbcee7e60	-0.029112995
141	0xb9b61fae	-0.00034737348
142	0xbd24e497	-0.040257063
143	0xbd4847e0	-0.04889667
144	0x3ca7d0f2	0.020485375
145	0x3c257a03	0.010099891
146	0xbd279dfe	-0.040922157
147	0xbd2cad9e	-0.04215776
148	0x3da51107	0.08059888
149	0x3dd7f739	0.10545201
150	0xbbfc9c2f	-0.007709048
151	0x3d17a95e	0.037026756
152	0x3c2d543f	0.010579168
153	0x3de5a682	0.112133995
154	0x3d8992ac	0.067174286
155	0x3d486080	0.048920155
156	0xbc0e3743	-0.008680168
157	0xbc7ba2ff	-0.0153586855
158	0x3d17aa10	0.03702742
159	0x3c6d7b92	0.0144947935
160	0xbd227a08	-0.03966716
161	0xbcdf3f0f	-0.027251748
162	0xbc6653e1	-0.014058084
163	0xbd09d0da	-0.033646442
164	0x3c38006c	0.011230569
165	0x3cf47fc3	0.029846078
166	0x3cbd7738	0.023128137
167	0xbd0e7ba2	-0.034785874
168	0x3dfd62bb	0.12372347
169	0x3d863b02	0.065542236
170	0xbd12e006	-0.035858177
171	0x3cdaf2dd	0.026727134
172	0x3d525edc	0.051359996
173	0xbb49829f	-0.0030748022
174	0xbcdaf4f2	-0.026728127
175	0x3d2e9d78	0.042630643
176	0x3cedcdc4	0.02902878
177	0x3c6784c3	0.014130774
178	0xbb022f20	-0.0019864514
179	0x3d8ee3ab	0.06977018
180	0x3c8050b6	0.015663486
181	0x3aaaadd4	0.0013021776
182	0x3d9b588a	0.07585247
183	0xbd4d6e34	-0.050153926
184	0xbcabe5e0	-0.020983636
185	0x3a94bd37	0.0011347894
186	0x3d9bb63c	0.07603118
187	0xbdd1472e	-0.102186546
188	0x3d7925fc	0.06082724
189	0x3ca8272a	0.020526487
190	0x3db0b725	0.08628682
191	0xbd86adde	-0.06576131
192	0xbcdb71d0	-0.026787668
193	0x3dca02fc	0.098638505
194	0x3e264f67	0.16241227
195	0x3c4c5991	0.012472526
196	0xbd9b4674	-0.07581797
197	0x3d254dd2	0.04035742
198	0xbce62042	-0.028091554
199	0x3d28720e	0.041124396
200	0x3dc60c29	0.09670288
201	0x3d93a510	0.072092175
202	0x3e231835	0.15927203
203	0x3d1d44d9	0.038395736
204	0xbbc46351	-0.0059932848
205	0xbcea99c0	-0.028637767
206	0x3d2d8d33	0.042370986
207	0xbc51a9b6	-0.01279681
208	0x3c429297	0.01187577
209	0xbd8027f6	-0.06257622
210	0xbca92694	-0.020648278
211	0xbd234c47	-0.039867666
212	0x3dbb3839	0.09141583
213	0xbc8b5c53	-0.017011797
214	0xbd8c58aa	-0.06852849
215	0xbd0cb2b4	-0.034350112
216	0x3a940e2e	0.001129573
217	0xbda4d67f	-0.080487244
218	0x3b820bce	0.0039686924
219	0xbd9e63e0	-0.077338934
220	0xbd22f8d1	-0.03978807
221	0x3d9b8463	0.0759361
222	0xbdacaaed	-0.08431039
223	0x3c3749c8	0.011187024
224	0xbd172626	-0.036901616
225	0x3d6bd45f	0.05757558
226	0xbd100731	-0.03516311
227	0x3c2d97ff	0.010595321
228	0x3d6cd52e	0.05782049
229	0xbd0662d1	-0.032809082
230	0xbd0d7fca	-0.034545697
231	0xbda60ca8	-0.08107883
232	0xbb8690bd	-0.0041066096
233	0x3d35f537	0.04442331
234	0x3d85e185	0.06537155
235	0x3ce2f1c4	0.027703173
236	0xbc7eb8f8	-0.01554703
237	0xbd6820ca	-0.056671895
238	0xbc459bc2	-0.012061061
239	0xbcbc0f8d	-0.022956634
240	0xbd810ddd	-0.06301472
241	0x3d0c712c	0.034287617
242	0xbd38ca8a	-0.04511503
243	0x3d490fa0	0.049087167
244	0xbe0c58ca	-0.13705745
245	0x3d81fbc6	0.0634685
246	0x3d7918f4	0.060814813
247	0x3ca99065	0.020698735
248	0x3dbfa6cc	0.09357986
249	0xbd2baf75	-0.041915376
250	0x3d4d3f89	0.05010942
251	0xbd378a24	-0.044809476
252	0xbdad33b2	-0.08457126
253	0x3ababb64	0.0014246521
254	0x3c78aeec	0.015178423
255	0x3d39c52a	0.045354046

arith.constant5 f4 [128, 128]
0	0xbcdd476e	-0.0270116
1	0x3d9d0882	0.07667638
2	0x3db8b17f	0.0901823
3	0x3920c1ea	0.00015331028
4	0xbd90dc0a	-0.07073219
5	0x3d588786	0.05286362
6	0xbe117975	-0.14206488
7	0xbd2a7920	-0.04161942
8	0xbc7838e7	-0.015150285
9	0xb8ba8a8a	-8.894976e-05
10	0xbd858612	-0.065197125
11	0xbd5e1c19	-0.054226015
12	0x3c85ea8d	0.016347194
13	0xbc0881ee	-0.008331759
14	0xbd07ab05	-0.03312208
15	0xbd34ba5e	-0.044123046
16	0x3b3c6cc5	0.0028751355
17	0x3bde9796	0.006792973
18	0x39626612	0.00021591064
19	0xbcbedda2	-0.023299042
20	0x3db6e559	0.08930463
21	0x3daf2e36	0.08553736
22	0x3b801454	0.0039086733
23	0xbcbdd601	-0.023173334
24	0xbd7168df	-0.058937903
25	0x3d682e44	0.056684747
26	0xbd17dd88	-0.037076503
27	0x3ab8fdef	0.0014113764
28	0xbc1792a8	-0.009251274
29	0x3d860183	0.06543257
30	0x3ca12bff	0.0196743
31	0xbd4ab9f6	-0.049493752
32	0x3d11be8c	0.03558211
33	0x3c9e8dfa	0.01935481
34	0x3d1cd4c6	0.038288854
35	0x3e03fdc7	0.12889777
36	0xbd96b062	-0.07357861
37	0xbda29cd9	-0.079400726
38	0x3d8be21e	0.06830238
39	0xbe2ae2ce	-0.16688082
40	0xbd189665	-0.037252802
41	0x3b1e27e1	0.0024132656
42	0x3dbb618e	0.091494665
43	0x3caaa1a2	0.020829026
44	0x3d459eb2	0.048247047
45	0x3d5e0114	0.054200247
46	0x3dc6839c	0.09693071
47	0xbd31fa05	-0.043451328
48	0xbddb1e56	-0.106991455
49	0xbce57756	-0.028011005
50	0xbd8bd3cd	-0.06827507
51	0x3c7260f1	0.01479362
52	0x3ca90bd9	0.020635532
53	0xbd350b69	-0.044200335
54	0x3d4cb6d4	0.049979046
55	0x3cbedad6	0.023297708
56	0xbc734d8a	-0.01485003
57	0xbe04a006	-0.12951669
58	0xbd8d785f	-0.069077246
59	0xbc81ba88	-0.015836015
60	0xbd7b83c4	-0.06140496
61	0xbd97a587	-0.07404619
62	0xbc9c5bef	-0.019086806
63	0xbd3c41d7	-0.045961227
64	0x3d078f58	0.033095688
65	0xbce73c62	-0.028227035
66	0x3d42c9cb	0.047555726
67	0x3dc3ca81	0.09560109
68	0x3ce692a4	0.028146096
69	0x3d24fa33	0.04027767
70	0x3dd25832	0.10270728
71	0xbdce524a	-0.10074289
72	0xbc50aefb	-0.012737031
73	0xbdc20946	-0.09474425
74	0xbdd4118a	-0.10354908
75	0x3d8e7fde	0.069579825
76	0xbcd241bf	-0.025666116
77	0x3ccd7d97	0.0250843
78	0xbd3f5f07	-0.046721485
79	0x3dc725f7	0.09724038
80	0x3d173516	0.03691586
81	0xbd8b5a97	-0.06804388
82	0xbcdcca8d	-0.026952052
83	0x3ca8c3ca	0.020601172
84	0x3d7ba801	0.061439518
85	0xbd429dec	-0.047513887
86	0x3d617714	0.055045202
87	0x3c48226d	0.012215239
88	0x3ce994d8	0.028513357
89	0x3d9961b5	0.07489339
90	0xbd2ef29c	-0.04271184
91	0x3d1da7dc	0.03849016
92	0xbcaea746	-0.021319997
93	0xbd054680	-0.032537937
94	0x3da115db	0.07865497
95	0xbdae69e7	-0.08516293
96	0xbd30bc4b	-0.04314832
97	0xbdb63932	-0.08897628
98	0x3e24aadb	0.16080801
99	0xbd43a3ec	-0.04776375
100	0xbe25985a	-0.16171399
101	0xbc2339dd	-0.009962526
102	0xbcbc009f	-0.022949515
103	0x3be34c16	0.0069365604
104	0x3c267d91	0.010161773
105	0xbd131702	-0.035910614
106	0x3dae4c50	0.08510649
107	0x3d884f5a	0.0665576
108	0xbc18e199	-0.00933113
109	0xbde27548	-0.11057526
110	0x3bd4fa4b	0.006499564
111	0xbc98b1ca	-0.018639464
112	0xbda82bd7	-0.08211487
113	0xbc1be120	-0.009514123
114	0xbc4502ef	-0.012024625
115	0x3baf7ccc	0.005355453
116	0xbd9be1b8	-0.07611412
117	0xbd18a4fe	-0.037266724
118	0xbd07daf1	-0.033167783
119	0x3a5004e7	0.0007935301
120	0x3d2848d4	0.04108508
121	0xbd70fc57	-0.0588344
122	0xbdbc0084	-0.09179786
123	0x3d8365cf	0.06415903
124	0xbd5bbea7	-0.053648617
125	0xbd0c0ae4	-0.034190074
126	0xbd3baa04	-0.045816436
127	0xbdd32b36	-0.10310976
128	0x3c8e05d0	0.017336756
129	0x3b58a705	0.0033058536
130	0xbd58698c	-0.052835032
131	0x3dc446a1	0.09583784
132	0x3cdb0e72	0.026740286
133	0x3ccb4372	0.024812434
134	0xbdeca2ab	-0.11554464
135	0x3c8d81a2	0.017273728
136	0xb9d19d5a	-0.00039980822
137	0x3d9d04d4	0.076669365
138	0x3d067175	0.032823045
139	0x3d7d8556	0.061894737
140	0x3c5741e5	0.013138269
141	0x3ba77106	0.005109909
142	0xbceabb11	-0.028653653
143	0x3def5735	0.11686555
144	0x3d7fd822	0.06246198
145	0x3d1b50c4	0.03791882
146	0x3cafd518	0.021463916
147	0xbd09af8e	-0.033614688
148	0xbb16f9b7	-0.0023037025
149	0x3d959caa	0.07305272
150	0xbda16547	-0.07880645
151	0x3d2eb48f	0.042652663
152	0xbbc57a67	-0.0060265544
153	0xbce8309d	-0.028343493
154	0xbc810a09	-0.015751855
155	0xbdd5091e	-0.104021296
156	0x3d733021	0.05937207
157	0xbd32bd80	-0.043637753
158	0x3e229155	0.15875752
159	0x3cf62292	0.030045781
160	0x3d134f06	0.035964034
161	0x3d3267fb	0.043556195
162	0x3dd4a00e	0.103820905
163	0x3ad066cd	0.0015899778
164	0x3d746e3f	0.05967545
165	0xbdf21253	-0.11819901
166	0xbdec1966	-0.11528282
167	0xbc8fcfb2	-0.017555092
168	0x3dde2ae7	0.10848027
169	0xbc8f4274	-0.017487742
170	0xbd81e9ca	-0.0634342
171	0x3cf45a7a	0.029828299
172	0xbd4d5a35	-0.050134856
173	0x3acc48fe	0.0015585718
174	0x3dac1271	0.08401955
175	0x3df22efd	0.118253686
176	0x3d059109	0.03260902
177	0xbc58003c	-0.01318365
178	0xbd0380d0	-0.032105267
179	0x3d8596f2	0.06522931
180	0x3dff9cce	0.1248108
181	0xbd333247	-0.04374912
182	0x3e163fbe	0.14672753
183	0xbd491589	-0.049092803
184	0x3cb6e191	0.022324355
185	0x3c85c739	0.016330348
186	0xbd444654	-0.047918633
187	0xbe165a00	-0.1468277
188	0x3e50d671	0.20394303
189	0xbd6a5489	-0.057209525
190	0x3d82fb18	0.063955486
191	0x3e0d570e	0.1380274
192	0x3da95e2a	0.082699135
193	0x3cdd4c88	0.027014032
194	0x3d9f863a	0.077892736
195	0x3d32420d	0.043520022
196	0x3c8ab491	0.016931804
197	0x3bd92620	0.0066268593
198	0xbc32fdf6	-0.010924807
199	0x3ce08d0c	0.027411006
200	0xbd0e6873	-0.03476758
201	0xbe267fc6	-0.16259679
202	0xbd565215	-0.052324373
203	0xbd2483e9	-0.04016486
204	0x3d9fba9b	0.07799264
205	0xbe48bee2	-0.19604066
206	0xbddf9d84	-0.109187156
207	0x3dc55cba	0.09636827
208	0xbd57abb9	-0.052654
209	0xbca232cf	-0.019799618
210	0xbe197143	-0.14984612
211	0x3da7912b	0.081819855
212	0x3d4662d3	0.04843409
213	0x3d5d3e86	0.054014705
214	0xbe09b8e7	-0.13449441
215	0x3e013fbf	0.12621973
216	0xbd7ee79c	-0.0622326
217	0x3be1d922	0.0068923393
218	0xbad6ab16	-0.0016377892
219	0xbbafa050	-0.005359687
220	0xbc578668	-0.013154604
221	0x3d9ef300	0.07761192
222	0xbb8733f6	-0.0041260673
223	0xbe2fba22	-0.17160848
224	0xbdcb0832	-0.099136725
225	0xbd6682c6	-0.05627706
226	0x3de48cca	0.11159666
227	0x3d361251	0.04445106
228	0xbd4a4194	-0.049378946
229	0xbd95baa0	-0.073109865
230	0xbd180640	-0.037115335
231	0xbe44dff3	-0.19226055
232	0x3b7b2727	0.0038322897
233	0x3c598580	0.013276458
234	0xbd52fbf8	-0.051509827
235	0x3e200381	0.15626337
236	0xbd578f56	-0.05262693
237	0xbcb29692	-0.021800313
238	0x3bfe8398	0.007767152
239	0xbd9a76df	-0.07542204
240	0xbd01b15d	-0.031663287
241	0x3dd2cd36	0.10293047
242	0xbdaf76a4	-0.08567551
243	0x3e338c3e	0.17533967
244	0xbd9043ef	-0.07044207
245	0x3e1aa01e	0.15100142
246	0x3e030f87	0.12798892
247	0xbd118c86	-0.035534404
248	0xbb008155	-0.0019608338
249	0xbd1fd210	-0.03901869
250	0xbdc024f6	-0.0938205
251	0x3d6231c8	0.055223256
252	0x3d7a98dc	0.061180934
253	0x3dc72af7	0.09724992
254	0x3dc67cd1	0.096917756
255	0xbe15b2e9	-0.1461903

arith.constant6 f4 [128, 128]
0	0xbcf4f5d7	-0.029902382
1	0x3e17e340	0.14832783
2	0x3c8200ea	0.015869576
3	0x3cfaff05	0.03063918
4	0xbdc9fe0d	-0.098629095
5	0x3c8a87ba	0.016910423
6	0xbd568db1	-0.05238122
7	0x3cb8eb56	0.022573154
8	0xbdbfa81a	-0.09358235
9	0xbda72512	-0.081613675
10	0xbd20da75	-0.039270837
11	0xbd4e2670	-0.050329626
12	0xbde96d25	-0.11397771
13	0xbd784e53	-0.06062157
14	0x3c8d1990	0.017224103
15	0xbc89aa85	-0.016804943
16	0xbd0458b0	-0.03231114
17	0x3c776bae	0.015101356
18	0xbd7b15c7	-0.061300065
19	0x3d5b5453	0.053547215
20	0x3d93c23b	0.07214781
21	0x3d3a7890	0.045525134
22	0xbd42229d	-0.04739629
23	0x3b72fda3	0.0037077449
24	0xbd975046	-0.07388358
25	0xbcbb4e6a	-0.02286454
26	0x3d1d837d	0.038455475
27	0x3d06d7f9	0.03292081
28	0xbc55d1a1	-0.013050468
29	0x3d120481	0.035648827
30	0x3e4e36ff	0.20138167
31	0xbd5295ca	-0.05141238
32	0x3c558c39	0.01303392
33	0xbe0351ce	-0.12824175
34	0xbd8a510a	-0.06753738
35	0xbc272d6e	-0.010203702
36	0xbce8a11a	-0.028397132
37	0xbde724e4	-0.11286333
38	0x3dd4224c	0.10358104
39	0x3c30c11e	0.01078823
40	0xbd58427c	-0.05279778
41	0x3d20e1c1	0.039277796
42	0x3ccc3987	0.024929775
43	0xbb0019e5	-0.0019546684
44	0x3dc8fc24	0.09813717
45	0x3d95b85b	0.07310554
46	0x3dd92437	0.106026106
47	0xbd011645	-0.03151538
48	0xbd3dd212	-0.046342917
49	0xbd0e04f6	-0.0346727
50	0x3cdf52a5	0.027261088
51	0x3bd87e52	0.0066068554
52	0xbe0c56da	-0.13705006
53	0x3d23f331	0.040026847
54	0xbd6c1741	-0.057639364
55	0xbdedf202	-0.11618425
56	0xbce6e7dd	-0.028186733
57	0xbbd001b3	-0.006347859
58	0xbd43cc81	-0.047802452
59	0xbe00e3bd	-0.12586875
60	0x3c17e6f5	0.009271373
61	0xbc4d7b12	-0.012541549
62	0xbd6c3a7e	-0.05767297
63	0xbc69b486	-0.014264232
64	0x3ca85525	0.020548413
65	0xbd6d3cb8	-0.057919234
66	0x3c8d8eea	0.01728006
67	0x3c320ba9	0.010867038
68	0x3d4f99a0	0.050683618
69	0x3c5975ec	0.013272744
70	0x3e0b89a1	0.1362672
71	0x3e23bd1e	0.15990111
72	0xbd4d6837	-0.050148215
73	0xb865cf28	-5.4790784e-05
74	0xbdbda471	-0.0925988
75	0x3a7edd73	0.00097223296
76	0x37fb6768	2.9969684e-05
77	0xbc6bd27c	-0.014393445
78	0xbdb28ac1	-0.087178715
79	0xbd9ef49b	-0.077614985
80	0x3c4a0d1e	0.012332229
81	0x3ceb5046	0.0287248
82	0xbd2187b3	-0.039436053
83	0x3db1a772	0.08674516
84	0x3ca3cdeb	0.01999565
85	0xbd4d03ba	-0.050052382
86	0x3c117ee8	0.008880354
87	0xbd952bac	-0.072837204
88	0x3d254f83	0.04035903
89	0x3d10143b	0.035175543
90	0xbda61a81	-0.08110524
91	0x3d8c6920	0.068559885
92	0x3e01a5b0	0.12660861
93	0x3d641bc6	0.05569055
94	0xbc229cc1	-0.009925068
95	0x3d127cfe	0.035763733
96	0x3c09b076	0.008403888
97	0xbd743b80	-0.059627056
98	0xbb8d2846	-0.0043077795
99	0xbd29c3ed	-0.041446615
100	0x3c5c8197	0.013458631
101	0xbc39b413	-0.011334437
102	0x3d8eae4b	0.069668375
103	0xbb86bbe5	-0.0041117542
104	0x3b866611	0.0041015227
105	0xbbaa1176	-0.00519007
106	0x3ba8bed9	0.005149704
107	0x3cbc5fea	0.022994954
108	0x3ce4afb9	0.027915822
109	0x3d93ddec	0.072200626
110	0x3d4212d0	0.047381222
111	0x3c6264cd	0.013817978
112	0xbc71c278	-0.014755838
113	0xbdaf8d0e	-0.08571826
114	0x3db85ca0	0.09002042
115	0xbc9c9549	-0.019114153
116	0xbdadc11e	-0.084841
117	0xbd8042ec	-0.06262764
118	0xbde189e8	-0.11012632
119	0x3da6f053	0.08151307
120	0xbd0cbb3b	-0.034358244
121	0xbb844f50	-0.004037775
122	0x3cfa2143	0.030533439
123	0x3d5ce9d2	0.053933926
124	0xbca1c994	-0.01974944
125	0xbdacfaf7	-0.08446305
126	0xbd51e361	-0.051242236
127	0x3daf38f7	0.08555787
128	0x3dd36a85	0.10323051
129	0x3e4c17bb	0.19930927
130	0x3c4720bd	0.0121538015
131	0x3cc085db	0.023501327
132	0xbd85808d	-0.0651866
133	0x3d5ce308	0.05392745
134	0xbe05dd52	-0.13072708
135	0xbd5dbf21	-0.054137353
136	0xbdc3a2aa	-0.0955251
137	0xbd0c3fd7	-0.03424057
138	0xbd18c9e8	-0.037301928
139	0x3defbcd6	0.117059395
140	0x3de77faa	0.11303647
141	0xbda60b33	-0.08107605
142	0xbd1ca415	-0.03824242
143	0x3df8bbd2	0.12145199
144	0x3d1e9b48	0.038722306
145	0x3d7a0ec3	0.061049234
146	0xbd811d1b	-0.063043796
147	0xbbb758a2	-0.0055952827
148	0x3e17afe5	0.14813192
149	0xbd0706d5	-0.0329655
150	0xbd1ef75c	-0.03881012
151	0x3de903ed	0.11377702
152	0xbe182926	-0.14859447
153	0x3de2c8af	0.110734336
154	0xbdb401bd	-0.08789394
155	0x3d7a10b3	0.061051082
156	0xbd88d30e	-0.066808805
157	0xbe06db96	-0.13169703
158	0x3e1a8fb3	0.1509388
159	0xbd836b01	-0.06416894
160	0xbdaa3d12	-0.083124295
161	0xbd717416	-0.0589486
162	0x3d1701fc	0.036867127
163	0x3d178c40	0.036998987
164	0x3dfa7eac	0.12231192
165	0x3d7adf14	0.0612479
166	0xbe0682d3	-0.13135843
167	0x3dd1de69	0.102474995
168	0x3d31bbc6	0.043391965
169	0xbe0a5066	-0.13507232
170	0xbdb32dc1	-0.08748961
171	0x3daccfeb	0.08438095
172	0x3dc213fa	0.094764665
173	0xbd344f78	-0.0440211
174	0x3d953981	0.072863586
175	0x3d3c5e1d	0.04598819
176	0xbd503310	-0.050829947
177	0xbe0aa56a	-0.13539663
178	0x3d015459	0.03157458
179	0x3d97e0ec	0.07415947
180	0xbdbb82d9	-0.091558166
181	0xbcab0501	-0.02087641
182	0x3d86954d	0.065714456
183	0xbdd153af	-0.102210395
184	0xbd167a69	-0.036737833
185	0xbd4132d2	-0.047167607
186	0xbc6dc7c6	-0.014512962
187	0xbdbc8afd	-0.092061974
188	0xbd5c399d	-0.05376588
189	0xbde9f85d	-0.11424325
190	0xbd6bc98f	-0.057565268
191	0xbd8a62a7	-0.06757098
192	0xbb972a7f	-0.00461322
193	0xbcb14f56	-0.021644276
194	0x3daa3526	0.083109185
195	0x3db64915	0.08900658
196	0xbdbe43fa	-0.09290309
197	0x3e0630a0	0.13104486
198	0xbc47e093	-0.012199539
199	0x3c503918	0.012708925
200	0xbda42801	-0.08015443
201	0x3c804678	0.015658602
202	0x3e3d2d39	0.18474282
203	0x3dc8e6c7	0.09809642
204	0xbd8bbd12	-0.06823172
205	0xbe364c85	-0.17802627
206	0xbdca25e8	-0.09870511
207	0x3db51cc6	0.08843379
208	0x3e20f844	0.15719706
209	0xbdc5e218	-0.096622646
210	0xbc9de9c2	-0.019276503
211	0x3dcb2bf4	0.09920493
212	0x3d0ef316	0.034899794
213	0x3b434ae5	0.002979928
214	0xbd38c598	-0.045110315
215	0xbc5e92d2	-0.013584809
216	0x3d04fdc8	0.032468587
217	0x3cc6ddd7	0.024275703
218	0xbd9d8de9	-0.07693083
219	0x3a2ee01e	0.00066709693
220	0xbc9d44d1	-0.019197853
221	0x3b2f36fa	0.002673565
222	0x3d49c049	0.049255643
223	0xbd8489d6	-0.064716026
224	0xbcf47904	-0.029842861
225	0xbd3c0590	-0.045903742
226	0xbd80c947	-0.062883906
227	0xbd967df1	-0.0734824
228	0xbe2d6eb1	-0.16936757
229	0xbdb6022c	-0.08887133
230	0xbc107caa	-0.008818785
231	0xbdb22066	-0.08697586
232	0xbd90791d	-0.070543505
233	0x3e0dcb79	0.1384715
234	0xbd3575b5	-0.044301707
235	0x3dc300ed	0.09521661
236	0x3cbe45cf	0.023226647
237	0x3d3a9891	0.045555655
238	0xbd423a72	-0.04741902
239	0x3d44f6db	0.048086982
240	0xbcbe489c	-0.023227982
241	0xbd9af186	-0.07565598
242	0x3c1d7780	0.009611011
243	0x3bdb5456	0.0066934032
244	0x3befa7f1	0.0073137213
245	0xbe5563eb	-0.20838897
246	0xbd06b9ad	-0.032891918
247	0xbc8b95f2	-0.017039273
248	0x3dc553da	0.09635134
249	0xbd0e75f5	-0.03478046
250	0xbe2e54c6	-0.17024526
251	0xbbbbb4a4	-0.005728321
252	0x3e3973c4	0.18110567
253	0xbd450b54	-0.048106506
254	0x3d499185	0.049211044
255	0x3b1c9f87	0.0023898797

arith.constant7 f4 [128]
0	0x3c22240d	0.0098962905
1	0x3d30dac9	0.0431774
2	0x3c0e0989	0.008669266
3	0x3c87c5de	0.016573843
4	0x3cac81ef	0.02105805
5	0x3c05b28d	0.008160246
6	0x3d80e676	0.06293957
7	0xbc6da395	-0.014504333
8	0xbc2ab2be	-0.010418592
9	0x3c1b7502	0.009488346
10	0x3d226131	0.03964347
11	0x3d7c3097	0.061569776
12	0xbb49e1f1	-0.0030804838
13	0x3b132b46	0.0022456213
14	0x3ca712dc	0.020394735
15	0x3d252958	0.04032263
16	0x3d10d30f	0.03535753
17	0x3b9734db	0.004614455
18	0xbb1ddff8	-0.0024089795
19	0xbcc2f1ef	-0.023797004
20	0x3a8beddd	0.0010675747
21	0x3ce7fb6f	0.028318135
22	0x3d2006cd	0.039068986
23	0x3b151ce1	0.002275281
24	0xbbeac694	-0.0071647856
25	0x3d55db8c	0.05221133
26	0x3cd1f7f0	0.025630921
27	0x3c761c86	0.015021449
28	0x3da12819	0.07868976
29	0x3c8203a0	0.01587087
30	0x3c9ba259	0.018998312
31	0x3da2ecf6	0.07955353
32	0x3cd3e137	0.025864227
33	0x3c88f1ad	0.016716802
34	0xbcd90f78	-0.026496634
35	0x3d1fa6c0	0.038977385
36	0xba869e91	-0.0010270645
37	0x3c2fda73	0.010733235
38	0x3c31c002	0.010849001
39	0x3d848bdb	0.06471988
40	0x3d5ae6af	0.053442653
41	0x3c7ac7e2	0.015306445
42	0x3cce65d8	0.025195047
43	0xbb4cd35e	-0.0031253914
44	0x3d74e8bf	0.059792276
45	0x3cfa5c15	0.030561486
46	0x3c1ae5f4	0.009454239
47	0x3b92d153	0.00448052
48	0x3d8154ac	0.06314978
49	0x3d41a0b9	0.047272418
50	0x3c839cd8	0.016066
51	0x3bad01e9	0.0052797687
52	0x3c924c18	0.01785855
53	0x3d5253c4	0.051349416
54	0x3d351576	0.04420992
55	0x3c9b2b37	0.018941505
56	0x3d2f0cf4	0.042736962
57	0x3d5cf617	0.053945627
58	0x3c404330	0.011734769
59	0x3d165b59	0.03670821
60	0xbb84332e	-0.0040344214
61	0x3d88adab	0.066737495
62	0x3db0cfa4	0.08633354
63	0x3c987b71	0.018613549
64	0x3d1286d3	0.03577311
65	0x38dd191e	0.0001054278
66	0xbb935c6c	-0.0044971015
67	0x3d495276	0.049150907
68	0x3c52d660	0.012868494
69	0xbbb1eeb5	-0.0054300674
70	0x3d23f86c	0.040031835
71	0x3d5a69e5	0.053323645
72	0x3d7f2d9f	0.062299367
73	0x3e032065	0.12805326
74	0x3d17c0d3	0.037049126
75	0x3cfb1f46	0.03065456
76	0xbc247421	-0.010037453
77	0xbb7acc95	-0.0038268913
78	0x3d357ca5	0.044308323
79	0x3d6ae327	0.057345536
80	0x3d50efa5	0.051009793
81	0xbbf8f93f	-0.007598072
82	0x3d8e436a	0.06946452
83	0x3ccb0abe	0.024785396
84	0x3c9001ab	0.01757892
85	0x3cf8c962	0.030369464
86	0x3d1a4ed7	0.037672844
87	0x3d7134d6	0.05888828
88	0x3bf57cee	0.0074916994
89	0x3cc38404	0.02386666
90	0x3d7c9451	0.061664883
91	0x3d409bd0	0.047023594
92	0xbb98e45e	-0.0046658954
93	0x3cc355f0	0.02384469
94	0x3cafbdfe	0.0214529
95	0x3ca8b34a	0.020593304
96	0x3c2bc75e	0.010484545
97	0x3d0742bf	0.03302264
98	0x3d5a1174	0.0532393
99	0xbb30ae51	-0.002695937
100	0x3d13faa5	0.036127705
101	0x3a8a896e	0.0010569522
102	0x3dd89811	0.10575879
103	0x3d31eab2	0.043436714
104	0x3c97bdbe	0.018523093
105	0x3d769cb8	0.060208052
106	0x3d355afb	0.04427622
107	0x3ccbef59	0.024894403
108	0x3d09b1c5	0.0336168
109	0x3d32e704	0.043677345
110	0x3d69653e	0.056981318
111	0x3c950902	0.018192772
112	0xbcfe5a5f	-0.031048952
113	0xbbb181d0	-0.005417086
114	0x3d7e3352	0.06206066
115	0x3cc2f86f	0.023800103
116	0x3d2706b8	0.040777892
117	0x3d71cf11	0.059035365
118	0x3dbe91da	0.09305163
119	0xbc04922b	-0.00809149
120	0x3d6eeef4	0.058333352
121	0x3d39f686	0.04540112
122	0xbbb587da	-0.0055398764
123	0xba216a04	-0.000615746
124	0x3da255bc	0.07926509
125	0x3d68135e	0.056659095
126	0x3b306e1e	0.0026921104
127	0x3d21b29d	0.03947698

arith.constant8 f4 [128]
0	0x3ce3a4f1	0.027788611
1	0x3c3f9a55	0.0116945105
2	0x3cc7e35b	0.024400404
3	0x3c8dbcc6	0.017301928
4	0x3c5e9dd4	0.013587434
5	0x3c3889ed	0.011263353
6	0xb9df6242	-0.00042607082
7	0xbcc4f250	-0.024041325
8	0xbc3cb11a	-0.011516834
9	0x3856e18e	5.123164e-05
10	0x3a677b0b	0.00088302855
11	0xbb162174	-0.0022908123
12	0x3b36a5b6	0.0027869768
13	0xbc5e0721	-0.013551504
14	0xbcf12c45	-0.029440055
15	0x3cc4f0ae	0.024040546
16	0x3d0b767c	0.034048542
17	0x3c556f31	0.013026998
18	0x3c3e856a	0.011628488
19	0xbb74dcab	-0.0037362974
20	0x3caa402f	0.020782558
21	0xbbad0568	-0.0052801855
22	0xbb7c20e9	-0.0038471764
23	0xbb1adea9	-0.002363125
24	0xbba81166	-0.005129027
25	0xba7508a9	-0.0009347299
26	0x3d22a31f	0.039706346
27	0xbc979191	-0.018502029
28	0x3ce910b1	0.028450342
29	0x3b9e2691	0.004826375
30	0x3c051ad9	0.008124077
31	0x3d0cfb9d	0.034419645
32	0x3d0481d7	0.032350387
33	0x3a9690f3	0.001148729
34	0x3ba3d1b0	0.004999362
35	0x3bd4a0d4	0.006488899
36	0xbc28c2fc	-0.010300394
37	0x3bcc85db	0.0062415428
38	0xbc2fd11a	-0.010731006
39	0xbd05c013	-0.03265388
40	0xbccf3e7d	-0.025298351
41	0x3b4a3f03	0.0030860312
42	0xbb27ebdc	-0.002562276
43	0x3c697951	0.0142501155
44	0xbaecdcd8	-0.0018071188
45	0x3c0e18f0	0.008672938
46	0x3c3c993c	0.011511143
47	0x3c6080d4	0.01370259
48	0xbc6e644a	-0.014550278
49	0xbd43f264	-0.047838584
50	0xbd050cfd	-0.03248309
51	0x3a79ddf7	0.00095316715
52	0x3ca447f4	0.020053841
53	0xbd07a6c1	-0.033118013
54	0xbc5bf1f2	-0.0134243835
55	0x3c8a328b	0.016869804
56	0xbb874c39	-0.0041289595
57	0x3d1c6a31	0.03818721
58	0xbd09cd23	-0.0336429
59	0xbc567b7e	-0.013090966
60	0xbb8cbb81	-0.004294813
61	0xbc696de7	-0.014247394
62	0x3baef358	0.0053390674
63	0x3ca296b7	0.019847257
64	0x3c989e8f	0.018630294
65	0xbbebf716	-0.007201086
66	0x3cf4b8e5	0.02987332
67	0xbcd14830	-0.025547117
68	0x3c12745d	0.008938876
69	0x3cf6993a	0.030102361
70	0x3c434334	0.011917878
71	0xbc48a99c	-0.012247469
72	0xbbee9836	-0.0072813286
73	0xbcaffc1f	-0.021482525
74	0xbc9eb613	-0.01937393
75	0x3d4aed64	0.0495428
76	0xbba37c9d	-0.0049892203
77	0xbc993124	-0.01870019
78	0xbcc6bbeb	-0.024259528
79	0x3c31899c	0.010836031
80	0x3cb3eb14	0.02196268
81	0xbaefcd04	-0.0018295352
82	0x3c44ef9a	0.012020016
83	0x3ce11d03	0.027479654
84	0xbccf6b29	-0.025319653
85	0xbaef99bd	-0.001828007
86	0xbc70a74f	-0.014688327
87	0x3c88a863	0.016681856
88	0xbc81432b	-0.015779098
89	0x3ac30f6f	0.0014881919
90	0xbbda2f3f	-0.006658464
91	0xbc20d11c	-0.009815481
92	0xbb583027	-0.0032987685
93	0x3c9517a0	0.018199742
94	0xbcc2e43e	-0.023790475
95	0xbc1f1b8e	-0.009711159
96	0x3c20ce37	0.00981479
97	0xbc5e5cd0	-0.013571933
98	0xbbaafd61	-0.0052181934
99	0xbcc85bb1	-0.024457784
100	0xbc2c239c	-0.010506537
101	0xbb45c450	-0.0030176826
102	0xbd1b1020	-0.037857175
103	0x3abd62eb	0.0014449036
104	0x3b46ac78	0.0030315202
105	0x3c86b3cb	0.016443154
106	0xbb48f0d9	-0.0030661135
107	0x3cba5fe5	0.022750804
108	0x3ad4180d	0.0016181484
109	0xbbfafaf6	-0.0076593114
110	0x3c8e1f42	0.01734889
111	0x3c89de75	0.016829709
112	0x3c8818ff	0.016613482
113	0xbc0218b1	-0.007940457
114	0xbc49d959	-0.012319886
115	0xbbcad325	-0.006189721
116	0x3cd2beeb	0.025725802
117	0x3cc6a8ab	0.024250349
118	0xbcb1ed7f	-0.021719692
119	0xbc41c960	-0.011827797
120	0x3c3232c5	0.010876362
121	0x3caef660	0.021357715
122	0xbcfa3f38	-0.030547723
123	0x3b79832d	0.0038072572
124	0xbac54d9c	-0.0015053037
125	0x3d122d7f	0.03568792
126	0xbcdfa2f6	-0.027299386
127	0x3b3e81ba	0.0029069022

arith.constant9 f4 [128]
0	0x3f82401e	1.0175817
1	0x3f887fb0	1.0663967
2	0x3f814efa	1.0102227
3	0x3f804394	1.0020623
4	0x3f85ed8c	1.0463119
5	0x3f8277b1	1.0192777
6	0x3f7a4eb2	0.9777633
7	0x3f7f1328	0.99638605
8	0x3f82564a	1.0182583
9	0x3f81178c	1.0085311
10	0x3f8666fa	1.0500176
11	0x3f854928	1.041295
12	0x3f8388cf	1.0276126
13	0x3f81473c	1.0099864
14	0x3f81d6e8	1.0143709
15	0x3f858ce9	1.0433627
16	0x3f7e8305	0.9941867
17	0x3f7cf0b7	0.988048
18	0x3f881349	1.0630885
19	0x3f804d8f	1.0023669
20	0x3f7768bb	0.9664418
21	0x3f80a464	1.0050168
22	0x3f7e29fe	0.99282825
23	0x3f750f4e	0.9572648
24	0x3f7b9764	0.9827788
25	0x3f819b18	1.0125456
26	0x3f7faf38	0.9987674
27	0x3f87c3ee	1.0606668
28	0x3f804309	1.0020458
29	0x3f846d20	1.0345802
30	0x3f85559e	1.0416753
31	0x3f8df82a	1.1091359
32	0x3f859a99	1.0437804
33	0x3f7c9b3f	0.98674387
34	0x3f8524d5	1.0401865
35	0x3f762ee4	0.961653
36	0x3f8ab026	1.0835006
37	0x3f832316	1.0245082
38	0x3f80a651	1.0050756
39	0x3f8a7361	1.0816461
40	0x3f87aaef	1.059904
41	0x3f8659f4	1.0496202
42	0x3f84cd09	1.0375072
43	0x3f7dce4f	0.99142927
44	0x3f89786c	1.0739875
45	0x3f83f519	1.0309173
46	0x3f814f31	1.0102292
47	0x3f7ddd21	0.9916554
48	0x3f832523	1.0245708
49	0x3f8683f8	1.0509024
50	0x3f8254e2	1.0182154
51	0x3f777498	0.9666228
52	0x3f82f3f2	1.0230696
53	0x3f8308f2	1.0237105
54	0x3f7ace8c	0.97971416
55	0x3f847903	1.034943
56	0x3f83868a	1.0275433
57	0x3f86a531	1.0519162
58	0x3f8385f8	1.0275259
59	0x3f845580	1.0338593
60	0x3f832127	1.0244492
61	0x3f84b718	1.0368376
62	0x3f852866	1.0402954
63	0x3f846501	1.0343324
64	0x3f80dd3a	1.0067513
65	0x3f802201	1.0010377
66	0x3f82e1dd	1.0225178
67	0x3f834acc	1.0257201
68	0x3f8498df	1.0359153
69	0x3f857bb7	1.042838
70	0x3f803007	1.0014657
71	0x3f84c11a	1.037143
72	0x3f8002fa	1.0000908
73	0x3f873b6a	1.0565007
74	0x3f82358f	1.0172595
75	0x3f852534	1.0401978
76	0x3f81b211	1.0132467
77	0x3f82e6ad	1.0226647
78	0x3f834ee9	1.0258456
79	0x3f83b344	1.0289083
80	0x3f83b011	1.0288106
81	0x3f7dae2a	0.9909388
82	0x3f8f9c90	1.1219654
83	0x3f832fe2	1.0248988
84	0x3f8483c5	1.0352713
85	0x3f8652ce	1.049402
86	0x3f800f67	1.00047
87	0x3f7ec053	0.99512213
88	0x3f82185e	1.0163686
89	0x3f7c0b85	0.9845508
90	0x3f855684	1.0417027
91	0x3f88efcf	1.0698184
92	0x3f795956	0.9740194
93	0x3f7d3bc4	0.9891932
94	0x3f78827e	0.97074115
95	0x3f771e58	0.96530676
96	0x3f8082c8	1.0039911
97	0x3f83b055	1.0288187
98	0x3f8918be	1.0710676
99	0x3f866016	1.0498073
100	0x3f80b10d	1.0054032
101	0x3f828a00	1.0198364
102	0x3f835437	1.0260075
103	0x3f82179f	1.0163459
104	0x3f877683	1.0583042
105	0x3f7dc5c1	0.99129874
106	0x3f7b5e39	0.9819065
107	0x3f83bc28	1.0291796
108	0x3f7c9a9e	0.9867343
109	0x3f860e01	1.0473024
110	0x3f852083	1.0400547
111	0x3f81bb7b	1.013534
112	0x3f7dab2b	0.99089307
113	0x3f7dd87c	0.99158454
114	0x3f8777c6	1.0583427
115	0x3f8508de	1.0393331
116	0x3f86a028	1.0517626
117	0x3f821e9c	1.0165591
118	0x3f87420c	1.0567031
119	0x3f7e51b9	0.9934345
120	0x3f8369f4	1.0266709
121	0x3f80596e	1.0027292
122	0x3f7a2988	0.9771962
123	0x3f7c0a31	0.9845305
124	0x3f7e1d2a	0.9926325
125	0x3f7d3ec0	0.98923874
126	0x3f82b3f4	1.0211167
127	0x3f83d3d3	1.0299019

arith.constant10 f4 [128]
0	0x3c3567d7	0.011072121
1	0x3cc0f961	0.023556413
2	0xbc6a54e7	-0.014302469
3	0x3ccd09cc	0.025029086
4	0x3c459e2b	0.012061636
5	0xbb4ca6e3	-0.0031227402
6	0xbbbe0c66	-0.005799818
7	0xbc8e9f67	-0.017409993
8	0x3bd7630a	0.0065730857
9	0xbae8bb91	-0.0017756094
10	0x3c89d3d6	0.016824644
11	0x3d2a4437	0.04156896
12	0xbcaa81fd	-0.020813936
13	0xbc05dc5c	-0.008170214
14	0x3c8e0dad	0.017340505
15	0x3d0bbbc7	0.034114625
16	0xbcad1dea	-0.021132428
17	0xbca71863	-0.02039737
18	0x3cac92eb	0.02106615
19	0xbb039bab	-0.00200818
20	0xbbd1eb44	-0.0064062197
21	0xbdaea233	-0.08527031
22	0x3ce4457c	0.027865164
23	0xbd1b6b57	-0.037944164
24	0x3b66374e	0.003512818
25	0x3cc27868	0.023739055
26	0x3c9e4ece	0.019324686
27	0x3a2b1771	0.00065266254
28	0xbc9a79bc	-0.018856876
29	0xbc913165	-0.017723748
30	0x38a1e4d7	7.719703e-05
31	0x3d8de953	0.06929269
32	0x3c18b15e	0.009319631
33	0xbc2a5b7f	-0.010397791
34	0xbcade839	-0.021228896
35	0x3badcbeb	0.00530385
36	0x3d694d93	0.056958746
37	0xbbe76a05	-0.007062199
38	0x3bfb3634	0.0076663736
39	0x3d13e550	0.03610736
40	0xbc474cce	-0.012164308
41	0xbd50f70e	-0.05101686
42	0x3c0e0a83	0.008669498
43	0xbc5d80c3	-0.013519469
44	0xbc071a89	-0.008246073
45	0x3cb53b52	0.022123013
46	0x3d494729	0.04914013
47	0xbd2b45e7	-0.04181471
48	0x3d34810e	0.04406839
49	0x3ccc40e8	0.024933293
50	0xbc9a1598	-0.018809125
51	0x3c54a208	0.012978084
52	0xbd046768	-0.03232518
53	0x3ce637ca	0.028102774
54	0xbcd3f42c	-0.025873266
55	0x3cbcd77c	0.02305197
56	0x3c679b51	0.014136151
57	0x3d003beb	0.031307142
58	0xbcfa15b6	-0.03052793
59	0x3acb2101	0.0015497507
60	0xbccc3d08	-0.024931446
61	0xbc95f2ae	-0.018304195
62	0x3d38c59a	0.045110323
63	0xbbe934dc	-0.007116897
64	0xbcde3ee4	-0.027129598
65	0x3b993fd5	0.004676799
66	0xbcca2e0f	-0.024680166
67	0x3b21eb14	0.0024706768
68	0x3cf2a1de	0.0296182
69	0xbd166d4a	-0.03672532
70	0x3d38bf7a	0.04510448
71	0xbab19be3	-0.0013550486
72	0x3d74c8c7	0.05976179
73	0xbc0c8559	-0.008576714
74	0x3c935235	0.017983535
75	0x3cd4beb6	0.025969844
76	0x3c897f59	0.016784357
77	0xbc9e7e5d	-0.019347364
78	0x3c7be3e4	0.015374158
79	0x3d2e5a28	0.04256645
80	0x3cd442d5	0.025910774
81	0xbca4a393	-0.02009753
82	0xbc0e29a1	-0.008676917
83	0x3c8bb703	0.01705504
84	0x3bbc7424	0.0057511497
85	0x3b499578	0.0030759256
86	0xbca9e361	-0.020738306
87	0xbc29a6c5	-0.010354702
88	0x3b208aec	0.0024496866
89	0xbbcacce0	-0.006188974
90	0x3d282395	0.04104956
91	0x3d1b0e65	0.037855525
92	0xbc74c5ae	-0.014939709
93	0x3d131c56	0.035915695
94	0xba27505d	-0.00063825195
95	0xbd27b414	-0.04094322
96	0x3ce347c8	0.027744189
97	0x3b250957	0.002518257
98	0x3c41010a	0.011780033
99	0xba150f6f	-0.0005686199
100	0x3d3311d4	0.043718174
101	0x3c0109e4	0.007875893
102	0x3d267fd4	0.04064925
103	0x3d4d2dfb	0.05009268
104	0xbc177f28	-0.009246625
105	0xbd3f0af2	-0.046641298
106	0xbbab7cb9	-0.005233374
107	0x3c0701ac	0.008240145
108	0x3c3bd1e2	0.011463614
109	0xbd8dbb2b	-0.06920465
110	0xbd0ef38c	-0.034900233
111	0x3cf7d131	0.030251117
112	0xbcf8d18b	-0.030373355
113	0xbccaa25d	-0.024735624
114	0x3c5a9552	0.013341265
115	0x3d06327a	0.032762982
116	0xbb0fdcc7	-0.0021951662
117	0x3d25d28c	0.040483996
118	0xbc9a92e7	-0.018868877
119	0xbccd9cfe	-0.025099274
120	0x3d6c57b1	0.057700817
121	0x3d078037	0.03308126
122	0x3cc7fa95	0.024411479
123	0x3c2ca5f6	0.010537615
124	0x3bdcac99	0.0067344424
125	0x3cfbdcec	0.030744992
126	0xbd0d353c	-0.034474596
127	0x3c861d7d	0.016371483

arith.constant11 f4 [128, 3]
0	0xbd3d72b5	-0.04625197
1	0xbc2c396b	-0.010511736
2	0x3c0988f4	0.008394469
3	0xbd12fea4	-0.035887375
4	0xbd47fb5b	-0.048823696
5	0xbdade4d9	-0.08490915
6	0xbdc249b1	-0.09486712
7	0x3d79ed5b	0.061017375
8	0x3c7c1b97	0.015387437
9	0x3d413764	0.047171965
10	0x3c8ec2a1	0.01742679
11	0xbd2f1e48	-0.042753488
12	0xbdb5ef6b	-0.08883556
13	0xbd492851	-0.049110714
14	0xbc4f9b58	-0.012671314
15	0xbdea69c9	-0.11445958
16	0xbde142b9	-0.109990545
17	0xbd8b793c	-0.06810233
18	0x3dc346e8	0.09535009
19	0xbdedb451	-0.11606658
20	0x3c308505	0.010773902
21	0xbe0f561e	-0.13997695
22	0x3d70bffb	0.058776837
23	0x3d303472	0.043018766
24	0x3d93735e	0.07199739
25	0x3dc05c6b	0.09392627
26	0xbafc33d4	-0.001924152
27	0x3c04a10a	0.008095035
28	0xbb643b9a	-0.0034825564
29	0x3d6342f9	0.055483792
30	0xbdc7b29e	-0.097508654
31	0x3d33269f	0.043738004
32	0xbe03b8e4	-0.12863499
33	0x3dd8c30f	0.105840795
34	0x3c1f5628	0.009725131
35	0x3c9f0ed3	0.019416248
36	0x3dbfd43b	0.093666516
37	0x3c33a2b6	0.010964086
38	0x3def6efd	0.11691091
39	0x3da2a1a4	0.07940987
40	0xbd2419b7	-0.040063586
41	0xbd2b1557	-0.041768398
42	0xbc0b0220	-0.008484393
43	0x3dd5359c	0.10410616
44	0xbd9b4f07	-0.07583433
45	0xbd39324e	-0.04521399
46	0x3d84f50a	0.0649205
47	0x3ce4c6df	0.02792686
48	0xbd3c6d58	-0.046002716
49	0xbc85fb58	-0.016355202
50	0xbcbcb641	-0.023036124
51	0xbd4e897d	-0.050424088
52	0x3d03dc56	0.03219255
53	0x3d95b17f	0.07309245
54	0xbd6dfe5d	-0.058103908
55	0xbd0b5643	-0.034017812
56	0x3d9e7288	0.07736689
57	0xbdb9585c	-0.09050056
58	0x3d9c77e5	0.076400556
59	0x3d934ffe	0.07192992
60	0xbdd8388c	-0.105576605
61	0xbd0bfba4	-0.03417553
62	0xbd1c786a	-0.038200773
63	0x3dc6a3c1	0.09699202
64	0x3dce59aa	0.10075696
65	0xbcdad22f	-0.026711551
66	0x3d556b08	0.052104026
67	0x3d75a7bc	0.059974417
68	0xbce146d4	-0.027499594
69	0xbc7d27ed	-0.015451414
70	0xbd6ce28f	-0.05783325
71	0x3d8dc97f	0.06923198
72	0x3d5fe5e5	0.054662604
73	0x3e0afea1	0.13573696
74	0xbd360453	-0.044437718
75	0xbb657168	-0.0035010222
76	0x3d3e412b	0.046448868
77	0xbd3946d7	-0.045233574
78	0xbd774cb1	-0.060375873
79	0xbdcece3d	-0.100979306
80	0x3e2d7f97	0.16943203
81	0xb83dcf70	-4.5254303e-05
82	0x3db6b391	0.08920968
83	0x3e18a9e8	0.14908564
84	0x3d153c6d	0.03643458
85	0x3d85bfaf	0.06530701
86	0x3d288c7c	0.0411496
87	0x3cfa2308	0.030534282
88	0x3dafef2a	0.08590539
89	0xbd902a5f	-0.07039332
90	0xbd915b24	-0.07097462
91	0xbd8a0358	-0.06738919
92	0x3d914b2d	0.07094417
93	0xbc9d51dd	-0.019204075
94	0x3d5fd265	0.054644007
95	0x3d7c4cdb	0.061596733
96	0xbc408ff5	-0.011753072
97	0xbdd60294	-0.104497105
98	0xbd765ba2	-0.06014598
99	0xbd8d813f	-0.06909417
100	0xbd255d89	-0.040372405
101	0x3d945f69	0.072447605
102	0xbc0889ae	-0.008333607
103	0xbdbdfe32	-0.092769995
104	0x3d78ffa6	0.06079068
105	0x3e095105	0.13409813
106	0x3d2bcd39	0.041943762
107	0x3d6b9adb	0.05752073
108	0xbdc97d1f	-0.09838318
109	0xbcc21840	-0.023693204
110	0x3c971155	0.018440882
111	0x3d6b357f	0.057424065
112	0x3ddf92a0	0.109166384
113	0x3c557df0	0.013030514
114	0x3dc984d5	0.09839789
115	0xbbfda491	-0.007740565
116	0x3c54e374	0.012993682
117	0x3c975885	0.018474827
118	0xbbdf93b8	-0.0068230294
119	0xbc2ac2e9	-0.010422447
120	0x3d288524	0.041142598
121	0xbd9d8d00	-0.07692909
122	0xbdc5b4dd	-0.096536376
123	0xbd90c0b6	-0.07068007
124	0x3d6212d4	0.055193737
125	0x3dc8153c	0.09769675
126	0xbbaa167e	-0.0051906696
127	0xbdac5d84	-0.08416274
128	0xbc845579	-0.016154038
129	0x3d9768d9	0.07393045
130	0xbd08012e	-0.03320425
131	0x3bf4e064	0.0074730385
132	0x3d199f35	0.037505347
133	0xbd0548bb	-0.032540064
134	0xbdd0e56a	-0.10200007
135	0xbd9bf1e3	-0.076144956
136	0xbcd67bea	-0.026182134
137	0x3cf9fe2a	0.030516703
138	0xbd772164	-0.06033458
139	0xbd8ba724	-0.06818989
140	0xbc9fd8de	-0.01951259
141	0x3ce13ab9	0.027493821
142	0xbd15039e	-0.036380403
143	0xbcd15d4a	-0.025557179
144	0x3d1ad566	0.03780117
145	0xbb5d6f4a	-0.0033788257
146	0x3c107e3d	0.00881916
147	0x3d45628e	0.048189692
148	0x3a939968	0.0011260929
149	0xbd94db28	-0.07268363
150	0x3e05ef0c	0.1307947
151	0x3da67d99	0.081294246
152	0x3d6021ca	0.054719724
153	0xbdd3203e	-0.10308884
154	0xbdfade82	-0.12249471
155	0x3db45045	0.08804373
156	0x3c5d3a51	0.013502673
157	0xbd3af7e4	-0.045646563
158	0x3ca4f2a8	0.020135239
159	0xbd068ab8	-0.032847136
160	0x3ba5154f	0.0050379406
161	0x3d462704	0.048377052
162	0x3db09867	0.086228184
163	0x3b74b4e5	0.0037339267
164	0x3c17fbeb	0.0092763705
165	0x3cf9996f	0.03046867
166	0x3d49e07e	0.049286358
167	0x3dd54330	0.104132056
168	0x3e011733	0.12606506
169	0xbd82c1b1	-0.063846
170	0xbd88a2b9	-0.06671662
171	0xbd98ef95	-0.07467572
172	0x3c99cee1	0.018775405
173	0x3c662ccb	0.014048765
174	0xbcd8ccca	-0.026464839
175	0x3dd078b4	0.10179272
176	0x3d0fc53b	0.035100203
177	0x3cb2aab5	0.021809915
178	0xbcc924b6	-0.024553638
179	0x3d7dd615	0.061971743
180	0xbd937b56	-0.07201259
181	0xbca14a6d	-0.01968881
182	0x3cb6c00a	0.022308368
183	0x3dbd4af8	0.09242815
184	0xbda8b3cf	-0.08237421
185	0xbdd747bc	-0.10511729
186	0x3dd1b5f1	0.10239781
187	0x3d3232cd	0.04350548
188	0xbc45d748	-0.012075253
189	0xbd294f7a	-0.04133556
190	0x3d83a92d	0.06428752
191	0x3ce0d8f3	0.0274472
192	0x3b8b285a	0.0042467536
193	0xbce4426f	-0.02786371
194	0xbe216f6e	-0.15765163
195	0x3c1ad429	0.009449997
196	0xbdb151d4	-0.086581856
197	0x3db1b22d	0.086765625
198	0xbdae4d3b	-0.08510824
199	0x3d67af77	0.05656382
200	0x3cd807f9	0.02637099
201	0xbca0eff1	-0.019645663
202	0xbd984b14	-0.07436195
203	0x3dd7ef47	0.105436854
204	0xbe05c7ab	-0.13064449
205	0x3d94112e	0.07229839
206	0xbd09e6ab	-0.033667248
207	0xbd825ef4	-0.06365767
208	0x3df20d1d	0.118189074
209	0x3d8e407b	0.069458924
210	0x3cdd288f	0.026996879
211	0x3de7388f	0.112900846
212	0xbc1cba0e	-0.009565843
213	0xbd93a605	-0.072094
214	0xbd75f63d	-0.060049284
215	0xbcb4e8dc	-0.022083692
216	0x3de0f246	0.1098371
217	0xbd9f4ef5	-0.07778732
218	0xbcc42fe4	-0.023948617
219	0x3d994e17	0.074855976
220	0x3dafa2e2	0.08575989
221	0x3b3e46fb	0.0029034007
222	0x3c186493	0.0093013225
223	0xbd060a6f	-0.032724794
224	0x3cc2c077	0.023773415
225	0xbb920674	-0.0044563357
226	0xbcd20a18	-0.025639579
227	0xbc156194	-0.009117503
228	0xbdf01be6	-0.11724071
229	0xbd083720	-0.033255696
230	0xbcf0165f	-0.029307542
231	0xbe0aafd0	-0.1354363
232	0xbcbba5a0	-0.022906125
233	0x3d85412b	0.065065704
234	0x3d92c30e	0.0716611
235	0x3d2895aa	0.041158356
236	0x3e4f0f0d	0.20220585
237	0xbd610f6a	-0.05494634
238	0xbc3f86d3	-0.011689859
239	0xbd811978	-0.06303686
240	0xba813449	-0.0009857501
241	0x3d270255	0.04077371
242	0x3d6ba782	0.057532795
243	0x3d870f0b	0.06594666
244	0x3d997aa3	0.07494094
245	0xbd88c0fb	-0.06677433
246	0xbcda1db6	-0.026625495
247	0xbd809b07	-0.06279569
248	0xbd81765f	-0.063214056
249	0x3d857173	0.06515779
250	0x3dda1c73	0.106499575
251	0xbd864892	-0.065568104
252	0x3c4d60e6	0.012535309
253	0x3d7335b0	0.059377372
254	0xbca7cc09	-0.020483034
255	0x3dcf57fd	0.10124204
